ai_pipeline/quantized_model.tflite (tflite, 4872 bytes, 3 tensors)

tfl.pseudo_qconst1 i1 [5, 24]
0	0x1f	31
1	0x16	22
2	0x0a	10
3	0x1a	26
4	0xa7	-89
5	0x09	9
6	0xfc	-4
7	0x98	-104
8	0x20	32
9	0x54	84
10	0x18	24
11	0x2c	44
12	0x62	98
13	0x81	-127
14	0xe4	-28
15	0xab	-85
16	0xed	-19
17	0xed	-19
18	0x70	112
19	0xd4	-44
20	0x48	72
21	0x36	54
22	0xb3	-77
23	0xb9	-71
24	0xc5	-59
25	0x3e	62
26	0xb6	-74
27	0xbc	-68
28	0x81	-127
29	0x09	9
30	0x14	20
31	0x52	82
32	0x19	25
33	0x14	20
34	0x22	34
35	0x41	65
36	0x3d	61
37	0x12	18
38	0xd2	-46
39	0x30	48
40	0xaf	-81
41	0x47	71
42	0xef	-17
43	0xd4	-44
44	0x96	-106
45	0x27	39
46	0x12	18
47	0x9c	-100
48	0xf4	-12
49	0xdc	-36
50	0xab	-85
51	0xb3	-77
52	0x35	53
53	0x11	17
54	0x16	22
55	0xdf	-33
56	0xb4	-76
57	0x43	67
58	0xc0	-64
59	0x94	-108
60	0x31	49
61	0x03	3
62	0xda	-38
63	0x3d	61
64	0xb7	-73
65	0xaa	-86
66	0xb7	-73
67	0x84	-124
68	0x27	39
69	0x44	68
70	0xc9	-55
71	0x81	-127
72	0x27	39
73	0x12	18
74	0x33	51
75	0xa6	-90
76	0x42	66
77	0xef	-17
78	0x36	54
79	0xd5	-43
80	0xe7	-25
81	0xc8	-56
82	0x97	-105
83	0xb2	-78
84	0xf7	-9
85	0x9e	-98
86	0x85	-123
87	0x2e	46
88	0xff	-1
89	0x81	-127
90	0x03	3
91	0x4c	76
92	0x27	39
93	0xb5	-75
94	0xba	-70
95	0xd0	-48
96	0xda	-38
97	0xd0	-48
98	0xae	-82
99	0x2d	45
100	0x1f	31
101	0x81	-127
102	0x02	2
103	0x01	1
104	0xbd	-67
105	0xd4	-44
106	0xca	-54
107	0x36	54
108	0xdf	-33
109	0x0a	10
110	0xee	-18
111	0xf6	-10
112	0xad	-83
113	0xc4	-60
114	0x1c	28
115	0xf5	-11
116	0xc8	-56
117	0xaa	-86
118	0xfb	-5
119	0x25	37

tfl.pseudo_qconst3 i1 [24, 32]
0	0x95	-107
1	0x40	64
2	0x3b	59
3	0x61	97
4	0x91	-111
5	0xda	-38
6	0x50	80
7	0x6e	110
8	0xf9	-7
9	0xe5	-27
10	0x1f	31
11	0x81	-127
12	0x03	3
13	0x4b	75
14	0x87	-121
15	0xcc	-52
16	0xdd	-35
17	0x38	56
18	0x17	23
19	0x49	73
20	0xa0	-96
21	0x9a	-102
22	0xd9	-39
23	0xcc	-52
24	0xc8	-56
25	0x4d	77
26	0x7c	124
27	0xa8	-88
28	0x0e	14
29	0xf5	-11
30	0xfb	-5
31	0x14	20
32	0xf3	-13
33	0x33	51
34	0xfa	-6
35	0x1a	26
36	0xe7	-25
37	0x2e	46
38	0x07	7
39	0xed	-19
40	0x1e	30
41	0x3b	59
42	0x1f	31
43	0x13	19
44	0x38	56
45	0xe3	-29
46	0x46	70
47	0xf8	-8
48	0x81	-127
49	0xfc	-4
50	0x33	51
51	0xcd	-51
52	0x09	9
53	0xe7	-25
54	0x1c	28
55	0x45	69
56	0xf1	-15
57	0xe9	-23
58	0xe2	-30
59	0xe9	-23
60	0xa6	-90
61	0xba	-70
62	0xb7	-73
63	0x24	36
64	0x34	52
65	0xbc	-68
66	0x39	57
67	0xc4	-60
68	0x3e	62
69	0xee	-18
70	0x1c	28
71	0xf6	-10
72	0xfb	-5
73	0xdb	-37
74	0xec	-20
75	0x12	18
76	0xcf	-49
77	0x0b	11
78	0x41	65
79	0x19	25
80	0x7f	127
81	0x38	56
82	0x4b	75
83	0x12	18
84	0x30	48
85	0x4f	79
86	0xf5	-11
87	0xfb	-5
88	0xe1	-31
89	0x0f	15
90	0x18	24
91	0x25	37
92	0x41	65
93	0xf0	-16
94	0xef	-17
95	0x38	56
96	0x3b	59
97	0xf7	-9
98	0x3d	61
99	0x1f	31
100	0x15	21
101	0x35	53
102	0x47	71
103	0xcb	-53
104	0x03	3
105	0xbd	-67
106	0x3c	60
107	0x81	-127
108	0xbf	-65
109	0x31	49
110	0x27	39
111	0xd9	-39
112	0x22	34
113	0x53	83
114	0x42	66
115	0xd2	-46
116	0xb9	-71
117	0x3c	60
118	0xfc	-4
119	0x89	-119
120	0x0d	13
121	0xd4	-44
122	0xe3	-29
123	0x08	8
124	0x02	2
125	0xd8	-40
126	0xe8	-24
127	0x27	39
128	0xf4	-12
129	0x98	-104
130	0x9e	-98
131	0x03	3
132	0x89	-119
133	0x29	41
134	0xa1	-95
135	0x4d	77
136	0x9d	-99
137	0x00	0
138	0xac	-84
139	0xf3	-13
140	0x05	5
141	0x20	32
142	0x45	69
143	0x00	0
144	0x83	-125
145	0xf7	-9
146	0x73	115
147	0x52	82
148	0xf0	-16
149	0x89	-119
150	0xbe	-66
151	0x4b	75
152	0xe3	-29
153	0xee	-18
154	0xc0	-64
155	0x8a	-118
156	0x7f	127
157	0xbb	-69
158	0xb2	-78
159	0x3c	60
160	0xc4	-60
161	0x11	17
162	0x11	17
163	0x21	33
164	0xd2	-46
165	0xb0	-80
166	0x0e	14
167	0x4d	77
168	0xe1	-31
169	0x14	20
170	0x01	1
171	0xd7	-41
172	0xbf	-65
173	0x29	41
174	0x7f	127
175	0x52	82
176	0x48	72
177	0x10	16
178	0xf9	-7
179	0xef	-17
180	0x05	5
181	0x44	68
182	0xb2	-78
183	0x32	50
184	0x07	7
185	0x75	117
186	0x17	23
187	0xbf	-65
188	0x47	71
189	0xb0	-80
190	0x0e	14
191	0xf6	-10
192	0xc5	-59
193	0x2e	46
194	0xe2	-30
195	0x0b	11
196	0xb8	-72
197	0xcf	-49
198	0x1f	31
199	0x23	35
200	0x1e	30
201	0xe2	-30
202	0x8a	-118
203	0x2f	47
204	0x1d	29
205	0xbd	-67
206	0x13	19
207	0x90	-112
208	0x0e	14
209	0xbf	-65
210	0xac	-84
211	0x8f	-113
212	0x81	-127
213	0xe3	-29
214	0x42	66
215	0x9b	-101
216	0x89	-119
217	0x18	24
218	0xd8	-40
219	0x4c	76
220	0x18	24
221	0x17	23
222	0x27	39
223	0xb4	-76
224	0x31	49
225	0x2f	47
226	0xf2	-14
227	0xfb	-5
228	0xee	-18
229	0x2d	45
230	0xd7	-41
231	0xfa	-6
232	0xdf	-33
233	0x4a	74
234	0x08	8
235	0x1d	29
236	0x3a	58
237	0x03	3
238	0x1a	26
239	0xc0	-64
240	0xcb	-53
241	0xdd	-35
242	0xfa	-6
243	0x81	-127
244	0x0b	11
245	0xcd	-51
246	0xd5	-43
247	0x44	68
248	0xd2	-46
249	0x3e	62
250	0xb9	-71
251	0x06	6
252	0xfd	-3
253	0xd6	-42
254	0xd8	-40
255	0xd6	-42

tfl.pseudo_qconst5 i1 [32, 5]
0	0x74	116
1	0xfd	-3
2	0x0d	13
3	0x9f	-97
4	0x7f	127
5	0x4d	77
6	0x81	-127
7	0x16	22
8	0xcc	-52
9	0x5a	90
10	0xce	-50
11	0xd4	-44
12	0xaa	-86
13	0x4d	77
14	0x7f	127
15	0x7f	127
16	0x62	98
17	0xa9	-87
18	0xb2	-78
19	0x3e	62
20	0x9b	-101
21	0x81	-127
22	0x69	105
23	0xc7	-57
24	0x15	21
25	0x88	-120
26	0xb4	-76
27	0x0a	10
28	0x7c	124
29	0x81	-127
30	0xd3	-45
31	0xcb	-53
32	0x81	-127
33	0xd4	-44
34	0xb6	-74
35	0x6c	108
36	0x71	113
37	0xc7	-57
38	0x4c	76
39	0x7f	127
40	0x81	-127
41	0x51	81
42	0xe2	-30
43	0xb1	-79
44	0x0a	10
45	0xda	-38
46	0x81	-127
47	0x19	25
48	0x81	-127
49	0x55	85
50	0x2a	42
51	0xab	-85
52	0x54	84
53	0x81	-127
54	0x75	117
55	0xc1	-63
56	0x81	-127
57	0x90	-112
58	0x61	97
59	0x36	54
60	0x81	-127
61	0x31	49
62	0xbb	-69
63	0x4a	74
64	0xbb	-69
65	0xf0	-16
66	0x6d	109
67	0x36	54
68	0x81	-127
69	0xff	-1
70	0x13	19
71	0x9e	-98
72	0x32	50
73	0x7f	127
74	0x97	-105
75	0x7f	127
76	0xcc	-52
77	0xf9	-7
78	0x19	25
79	0xec	-20
80	0x81	-127
81	0xd3	-45
82	0x86	-122
83	0x2d	45
84	0x1d	29
85	0x69	105
86	0x8e	-114
87	0x81	-127
88	0xf9	-7
89	0xf2	-14
90	0x7f	127
91	0xf0	-16
92	0x46	70
93	0xe0	-32
94	0xc7	-57
95	0xe0	-32
96	0x62	98
97	0x81	-127
98	0xc1	-63
99	0x5b	91
100	0xb4	-76
101	0x65	101
102	0x95	-107
103	0x81	-127
104	0x98	-104
105	0x92	-110
106	0xef	-17
107	0x81	-127
108	0xc3	-61
109	0x4d	77
110	0x5f	95
111	0x24	36
112	0x96	-106
113	0x04	4
114	0x7f	127
115	0x41	65
116	0x81	-127
117	0xff	-1
118	0x31	49
119	0x94	-108
120	0xef	-17
121	0xb9	-71
122	0x81	-127
123	0xdb	-37
124	0xd4	-44
125	0x4a	74
126	0xbd	-67
127	0x12	18
128	0x81	-127
129	0x97	-105
130	0x3c	60
131	0x56	86
132	0x05	5
133	0x79	121
134	0x81	-127
135	0xc4	-60
136	0x40	64
137	0x3b	59
138	0xc3	-61
139	0x7f	127
140	0xbf	-65
141	0xeb	-21
142	0xbc	-68
143	0x7f	127
144	0xf9	-7
145	0x52	82
146	0x7f	127
147	0x0c	12
148	0x2d	45
149	0x92	-110
150	0x2e	46
151	0x46	70
152	0x81	-127
153	0x77	119
154	0xe5	-27
155	0x7f	127
156	0xe2	-30
157	0xca	-54
158	0x5a	90
159	0xfd	-3
